model/model.pth (torch, 17216 bytes, 4 tensors)

linear1.weight f4 [256, 11]
000000 e0 df 5c bd 80 08 8c be 8f 02 ef bc 7f dd 83 bc
       -0.05392444 -0.27350235 -0.029176025 -0.016096829
000010 fd dd dc bd a8 cb 8a bd dd 18 0a 3e 3c 94 86 3e
       -0.107845284 -0.067771256 0.13486047 0.2628497
000020 4e 5e 83 bd 81 64 9e 3e 9d aa 3f be c1 37 9a 3e
       -0.064144716 0.30936053 -0.18717428 0.30120662
000030 96 25 0f 3c bb a6 6a 3e a8 5f 72 3e cf 66 8a 3e
       0.0087369885 0.22915165 0.23669302 0.27031562
000040 44 c4 25 be c3 4d 2f 3d 3f 6a 61 bd 6e d5 0b 3e
       -0.1618815 0.04279877 -0.055032965 0.13655636
000050 db 74 2e be 42 8b 6f be 98 90 f9 bd 96 0f 82 3e
       -0.17036764 -0.23392966 -0.12185782 0.25402516
000060 d0 5c 94 be e0 5c f3 bd e0 05 e4 3c 04 c0 30 be
       -0.2897706 -0.11882949 0.027834833 -0.17260748
000070 09 7e dc 3d 62 07 97 be 27 6f 78 3d 72 30 54 be
       0.10766227 -0.2949782 0.060652878 -0.20721605
000080 81 3d 70 3d 33 bc 95 bd ba bb 7d 3e 95 98 ee 3d
       0.058652405 -0.07311287 0.24778643 0.116501965
000090 22 b1 88 be 62 80 07 3d 5b 20 9a be 87 7d be bd
       -0.26697642 0.03308142 -0.3010281 -0.09301286
0000a0 49 aa 8d be aa 41 0f 3e 6f ce 0f 3e 4a c8 9c bb
       -0.2766898 0.13989893 0.14043592 -0.0047846185
0000b0 97 21 8c 3e ea db ce 3c 41 74 47 3d 4e 48 19 3e
       0.27369377 0.025251348 0.048694853 0.14968988
0000c0 3a 6f 3f bd a3 f0 78 be b4 01 23 be 97 f0 c8 bc
       -0.046736933 -0.24310546 -0.15918618 -0.024528785
0000d0 8e 3b c7 3b aa 5c 4d 3e 24 78 90 3e bf f8 85 be
       0.0060800975 0.2005488 0.2821666 -0.2616634
0000e0 cd 42 92 be 00 78 0a b9 08 b5 44 bd 78 bd 7a 3d
       -0.2856659 -0.00013205409 -0.048024207 0.061215848
0000f0 cf 77 72 3e 70 c4 25 3d b0 1f 86 be 29 84 86 be
       0.23678516 0.04047054 -0.2619605 -0.26272705
000100 b5 3d dc 3c 3e 0e f7 bd ce b2 96 be 6e 51 5b bd
       0.026884893 -0.12063263 -0.29433292 -0.053544454
000110 b5 85 59 3e d9 bd ad 3d 93 85 98 3d 2c 9a 1b be
       0.21242411 0.08483476 0.07447352 -0.1519553
000120 61 2d e6 bd 1d 79 c0 3d 83 02 81 3e 67 b2 84 bd
       -0.11239124 0.093981005 0.2519723 -0.0647934
000130 ef 02 48 3b d0 0f 83 be 38 3f 88 3e 32 ae 54 3e
       0.0030519327 -0.25598 0.26610732 0.20769575
000140 4a 4a a3 bd 9e 2d 83 3e 91 63 4a 3e ee 9a 93 bd
       -0.07973154 0.2562074 0.19764544 -0.07207285
000150 8f 5a 4e bd d3 46 3c be 43 f2 24 be cf 2e 18 3e
       -0.050379332 -0.18386392 -0.1610804 0.14861606
000160 95 0b 39 3e 07 30 0c 3e b2 80 2e be 9d 8c 83 3d
       0.18070824 0.13690196 -0.17041281 0.06423304
000170 6a f4 01 3e 2c d3 5b 3e 42 1a 2f be dd 48 74 3e
       0.12690893 0.21467274 -0.1709986 0.2385592
000180 26 72 3a 3e 1b 88 ae bd c2 9d 4b be 63 5f 1b 3e
       0.18207607 -0.08522054 -0.19884399 0.15173106
000190 e8 3b 29 be 64 b4 8a be 1b f3 e3 3d cc 0b 1d bd
       -0.16526759 -0.27090752 0.11130353 -0.03834133
0001a0 e8 1a f0 3c 11 07 a2 bd b9 20 98 be e0 52 4f 3d
       0.029309705 -0.07911504 -0.29712465 0.050616145
0001b0 9c 8c 1d 3e 21 54 f4 bd 99 70 11 3e c5 40 89 3e
       0.1538567 -0.11930109 0.14203109 0.26807228
0001c0 9b a5 5b 3e 32 0a a2 bd 4f 78 9c be 32 ae 43 be
       0.21449892 -0.07912101 -0.30560538 -0.19109419
0001d0 5f 45 34 bb 39 44 59 bb f2 76 5d 3d e5 a1 1c 3e
       -0.0027507169 -0.0033152236 0.054068513 0.15296133
0001e0 fd 2d 1c be c3 f4 1d 3d 69 ff 81 3c d5 d4 03 3c
       -0.15251918 0.0385635 0.01586886 0.008046349
0001f0 d5 45 7c 3e 25 8a 36 3e 3d b3 ab 3d 3b 80 4f be
       0.24636014 0.17826135 0.08383796 -0.2026376
000200 71 fe 04 3e 3b 46 25 bd 66 fa 2e 3e 12 f3 1b 3e
       0.12987687 -0.04035018 0.17087707 0.15229443
000210 50 0f 64 be 73 53 8d 3e 59 d5 5c 3e 93 b8 45 be
       -0.22271466 0.2760273 0.2156576 -0.1930869
000220 fa 45 1f 3e ee c1 6e be d2 27 5f be a1 97 24 be
       0.15554038 -0.23316166 -0.21792534 -0.16073467
000230 e1 07 44 be 1e 0c 41 3e 68 5a 59 be fe ee 9f 3e
       -0.1914363 0.18852279 -0.21225893 0.31237024
000240 cc b7 5d 3e d5 4c fa 3c 36 67 2c be f9 6c 9f bb
       0.21652144 0.030554214 -0.16836247 -0.0048652855
000250 eb 40 8a 3e 9d 7b 16 be af 97 41 be 58 57 85 3e
       0.27002653 -0.14695592 -0.18905519 0.260432
000260 0a 5e 6e be 78 dc dc bd 4b a4 1c 3c 51 54 24 3e
       -0.2327806 -0.107842386 0.009560655 0.16047789
000270 31 67 8f 3e 57 9a 44 3d 08 6c 2d bd ca d9 42 3c
       0.28008416 0.047998752 -0.042339355 0.011892745
000280 90 1e 84 3e b6 8e 6a be 82 ba 8b be 9a 38 74 3e
       0.25804567 -0.22906002 -0.27290732 0.23849717
000290 c6 4f 37 3e 5d f0 88 3e 64 12 4b be 93 a9 fc bc
       0.17901525 0.26745883 -0.19831234 -0.030842578
0002a0 1b 6e 3d 3e 55 a6 5a bd 7d 14 01 be 97 09 e8 3d
       0.18499033 -0.053381283 -0.12605472 0.11329954
0002b0 cc 9b 1f be 9a bc 90 3e b7 0e 71 3e ac e7 b7 3d
       -0.15586776 0.28268892 0.2354077 0.08979735
0002c0 42 24 da bd 57 63 5e 3d 92 66 87 be 27 ac 98 be
       -0.10651447 0.054293957 -0.26445442 -0.29818842
0002d0 d1 d3 60 3e 4e fa d0 bd 5a 3e 3c be 31 0e 71 3d
       0.21955802 -0.10203992 -0.1838316 0.058851425
0002e0 86 6b 16 3e 12 3d 0a be 9c 09 c6 3d 14 dd a1 3e
       0.14689454 -0.13499859 0.096698016 0.31613982
0002f0 9c e6 4b 3e fc dc c1 3d 2a 02 35 be 2c e9 89 be
       0.19912189 0.094659775 -0.17676607 -0.2693571
000300 98 d5 64 3e eb 86 12 be a1 b6 9b bd c8 68 4d be
       0.22347105 -0.1430928 -0.07603193 -0.20059502
000310 26 39 1c 3d 36 8b 84 3e d1 5f 31 be 86 c0 10 3e
       0.03814044 0.2588746 -0.17321707 0.14135942
000320 6d d8 b7 bd 12 29 3e be 77 53 70 3e fe 83 0f 3e
       -0.08976827 -0.18570355 0.2346934 0.14015195
000330 9c 86 87 3c 5e ff 4c 3d 7c ac c4 bd c3 47 ee 3d
       0.016543679 0.050048225 -0.09603211 0.11634781
000340 01 77 33 3e 7c 70 91 bd 5f f7 28 be 9a 2e 84 3e
       0.17525865 -0.07101533 -0.16500615 0.25816804
000350 eb 94 3e be ce 1b 71 3e 80 04 70 bd ec ea 63 be
       -0.18611495 0.23545763 -0.05859804 -0.22257584
000360 88 83 67 bd 3b 81 f5 bd 1b a8 09 3e fc 15 7a be
       -0.056521922 -0.119875394 0.13443033 -0.24422449
000370 81 5e 82 be f6 81 8c bd 46 10 22 3e 17 ca 80 3e
       -0.25462726 -0.068607256 0.1582652 0.25154182
000380 11 35 ad bd 78 3c c8 3d b8 27 63 be b1 e5 09 be
       -0.08457387 0.097771585 -0.2218312 -0.13466527
000390 cc 9d b8 3d e9 e3 80 be 09 31 d0 bd c6 5f f5 bd
       0.09014472 -0.25173882 -0.10165603 -0.11981158
0003a0 31 c1 3e bc bc e1 87 3e 11 66 ba bd 2b d3 9f bc
       -0.01164274 0.2653941 -0.09101499 -0.019509872
0003b0 ce e2 8d bb 7a 47 31 be a6 1c 6f bd ee 43 00 3e
       -0.0043300157 -0.17312422 -0.05837693 0.12525913
0003c0 3e 69 55 3e fe 31 68 bd e3 f6 33 3d 8e ce 68 3e
       0.20840928 -0.0566883 0.04393662 0.22735044
0003d0 e0 00 68 3e 61 0f 5c 3e 43 e3 94 3e f3 13 8d 3e
       0.22656584 0.21490242 0.29079637 0.27554283
0003e0 33 a3 87 be 6f f0 c4 bd 7b 66 85 3e ee b2 cc 3d
       -0.264917 -0.096161716 0.2605475 0.09995066
0003f0 13 4f 3d be 1d 3c 0a bd 98 70 bc bd c4 a2 13 3e
       -0.18487196 -0.033748735 -0.09201163 0.14417559

linear1.bias f4 [256]
000000 02 e9 7e bd f1 dc 60 3d d5 47 7b be 30 05 84 3e
       -0.062233932 0.054898206 -0.2453912 0.25785208
000010 5b 16 4e bd d2 a9 06 bb 10 c2 2d 3c 33 86 8d be
       -0.05031429 -0.0020547998 0.01060535 -0.27641448
000020 cd d1 1d be 55 06 45 3e 7e ad d8 3c dd c6 ca bd
       -0.15412064 0.19240697 0.026449915 -0.099012114
000030 e9 7a 5f 3e fb 40 36 be b8 d9 3a be 77 88 65 be
       0.2182423 -0.17798226 -0.18247116 -0.22415338
000040 43 b9 56 be 5f c1 a8 3d 7d 4a 5c be 71 2a a5 3c
       -0.20969109 0.082400076 -0.2151279 0.02016184
000050 a8 d0 2f 3e 44 ee ef 3d c3 f3 f9 bd 16 f4 c5 bd
       0.1716944 0.117153674 -0.12204697 -0.09665696
000060 8d 46 86 3d 0b f4 87 be 18 fe 1a 3e 07 c0 63 be
       0.06556425 -0.26553378 0.15135992 -0.22241221
000070 cc 64 35 3e 10 61 c7 bd 66 e7 76 3c 00 8c 31 3e
       0.17714232 -0.0973531 0.015069818 0.17338562
000080 92 e0 55 be de 25 67 be b0 6c e6 bc 44 02 9f bd
       -0.20886448 -0.22573039 -0.028127998 -0.07764104
000090 aa fe fe 3c 0e 83 8b 3d e9 56 1f 3d 47 2e da bd
       0.031127293 0.06812106 0.038901243 -0.10653358
0000a0 c3 f2 8a be 29 c9 fb bd 40 f9 2a be 33 81 33 3e
       -0.27138337 -0.12294228 -0.16696644 0.17529754
0000b0 62 d4 b1 3d de 0e 49 bd 0d 9f 81 bd 52 d3 f8 3d
       0.08683087 -0.049086444 -0.06329165 0.12149681
0000c0 2d 4c 26 3e 60 2f 64 3c 16 0f 8f 3e 18 ab 8d be
       0.16239996 0.013927311 0.27941197 -0.27669597
0000d0 6d 0d 53 be 80 8a 53 be f5 e3 87 be ba 6a 52 be
       -0.2061059 -0.20658302 -0.26541105 -0.20548525
0000e0 8f 32 6b 3c ae c0 04 3c fa 84 b0 bd c6 db d9 3c
       0.014355316 0.008102579 -0.08619113 0.026594054
0000f0 45 3c de 3d 7b cf 77 be 34 9d f4 3d 15 1a e2 bd
       0.10851339 -0.24200241 0.119440466 -0.11040131
000100 ee 57 24 3e 45 cb 95 3d b6 37 5e 3e f9 13 88 3e
       0.16049168 0.07314161 0.2170094 0.26577738
000110 ab 41 2e 3e ba 51 b4 bd 53 ea d1 3c d9 5c 15 be
       0.17017238 -0.088046506 0.02562443 -0.145862
000120 ad e0 d7 bd 7b 01 b6 bd 08 78 82 3e dc e5 3d be
       -0.105409004 -0.08887001 0.25482202 -0.18544716
000130 c5 c3 5d 3e fd 91 90 3d 4a 97 3c 3e 7a 5d 49 bd
       0.21656711 0.07059095 0.18417087 -0.04916141
000140 43 85 9a 3d 24 0f 19 3e 2a 6f e6 bd 5e 05 02 3e
       0.07544949 0.14947182 -0.112516716 0.1269736
000150 3e 55 af bd 54 90 7f 3e a2 e4 6e 3e 8c 72 07 3a
       -0.085611805 0.249574 0.23329404 0.000516691
000160 91 04 30 3e c5 8b 87 3e dc 74 0c be dc 20 2f 3e
       0.17189242 0.26473823 -0.13716453 0.17102379
000170 9c ee 81 3e 71 b2 92 be 5a 5e 3e be 19 5b 19 3d
       0.25377357 -0.28651765 -0.1859068 0.037440393
000180 13 ec 6b 3d 73 66 01 3e fd c5 8e be b2 32 13 3e
       0.057598185 0.12636738 -0.27885428 0.14374807
000190 0b 4c e9 bd d4 65 8d bc 90 38 45 be aa 1b 5c 3e
       -0.11391457 -0.01726047 -0.19259858 0.21494928
0001a0 9f d7 79 3e a2 00 58 be 13 21 a2 3e c7 ef b2 3c
       0.24398659 -0.21093991 0.3166586 0.02184285
0001b0 f6 67 6d be b4 d2 da bd 5e f6 8f 3c 85 f0 dd 3d
       -0.23184189 -0.1068472 0.017573532 0.10836891
0001c0 db b4 0f be 9e 5e 5e 3e 69 79 1a be 05 fb e2 bd
       -0.14033835 0.21715781 -0.15085377 -0.110830344
0001d0 79 9c c6 3c 5e 1d 50 bc de 41 86 3e c3 1a 13 3e
       0.024244534 -0.012702314 0.26222128 0.14365678
0001e0 0a a6 64 bd 6b 37 55 be 40 b1 76 be 4c fb 69 3e
       -0.05582241 -0.20821922 -0.24091053 0.22849768
0001f0 ff 96 b6 bd 64 ca 97 be d5 9b 02 be eb 25 12 bd
       -0.08915519 -0.296466 -0.12754758 -0.035680693
000200 5b 6d 8f 3e 12 ed af bc cc 73 6b 3d 9e 1f 68 3d
       0.2801312 -0.021475349 0.05748348 0.056670777
000210 20 80 7e 3d 54 25 64 3e 67 ac 4e bd 1c e1 9f bc
       0.06213391 0.22279865 -0.050457384 -0.01951652
000220 64 10 5d bb 06 38 89 be 66 dc 20 3e 33 65 83 be
       -0.0033731693 -0.26800555 0.15709075 -0.25663146
000230 24 c1 ea bd 10 07 55 be df 96 97 be 99 1b ab bd
       -0.1146262 -0.20803475 -0.29607293 -0.08354873
000240 8c e0 5d 3e 62 d6 1c be 4f 77 48 be 5b 9f a5 3d
       0.21667689 -0.15316156 -0.19576763 0.08087035
000250 d6 26 0b be 8e 85 e6 3d c1 95 8b 3e 65 e5 45 3d
       -0.13589033 0.11255942 0.2726269 0.04831447
000260 ba dc 4e be c4 e8 96 be a6 39 4f bd 13 79 52 3e
       -0.20201388 -0.2947446 -0.050592087 0.20553999
000270 07 8f d3 bd 73 b0 9b 3b 2c 80 7f 3e c4 ad 25 bd
       -0.10330015 0.004751259 0.24951237 -0.04044892
000280 9f 76 30 3d cb 5a dd 3d 8f f1 51 3e 2c da 93 3e
       0.043081876 0.10808333 0.20502304 0.2887739
000290 02 5e 43 be 52 23 f5 bb 9a 6f 11 3e 94 94 9a 3b
       -0.1907883 -0.007481017 0.14202729 0.004717419
0002a0 a3 a5 87 3e 06 35 93 bd 9b 3b 58 3e 2b 0a 2d be
       0.26493558 -0.07187848 0.21116488 -0.1689841
0002b0 da 5b 6e be 79 b0 4a bc 1b 68 d5 bd 34 51 39 bd
       -0.23277226 -0.012371176 -0.10420247 -0.045243457
0002c0 06 7e d0 3d d7 02 42 3e 2a 13 2a be 43 85 ba bc
       0.10180287 0.18946396 -0.16608873 -0.022768622
0002d0 be 51 47 3e 28 db d2 3d a3 3c 4b 3d 2c cd 87 3e
       0.19464776 0.10295707 0.049618375 0.2652372
0002e0 b0 eb 63 be b7 51 2e 3d c6 a2 2f be 95 e0 aa bd
       -0.22257876 0.042558398 -0.17151937 -0.08343617
0002f0 b3 6b 85 bb 31 d0 fb bc 9c 17 45 be aa d8 8f be
       -0.0040716766 -0.030738922 -0.19247288 -0.2809499
000300 c2 db 05 be da 9e 7e 3e 2a 53 5a 3e 2c b8 5a 3e
       -0.13072112 0.24865285 0.21320787 0.21359318
000310 b4 c5 4b be 93 1f 0f 3e 6c 94 64 3e 1b 41 86 bd
       -0.19899637 0.13976888 0.22322243 -0.06555387
000320 dc 67 07 3d 70 93 b2 bc 62 3f 4a be 69 52 83 bd
       0.033058032 -0.02179882 -0.19750741 -0.06412203
000330 b8 40 8c bd 66 60 c3 3d eb 87 20 3d 2b ec 76 3e
       -0.068482816 0.09539871 0.03919212 0.24113528
000340 2a b7 15 3d bb b0 98 3d a0 85 ff 3d ce e5 1c be
       0.036551632 0.07455584 0.12476659 -0.15322039
000350 c4 43 72 be 90 15 fd bd 88 47 f2 bd f4 f5 53 be
       -0.23658663 -0.12357628 -0.1183005 -0.20699292
000360 b7 2e 65 be 4b a7 1a 3e c3 0d 64 3e f7 1d 42 3d
       -0.22381102 0.1510288 0.22270875 0.047391858
000370 76 58 f8 bd c7 94 42 be 7c 4d 2f 3e dc 05 87 bd
       -0.121262476 -0.19002067 0.17119402 -0.065929145
000380 24 a0 13 be 98 9b 84 3d f1 0b 90 3d da ff ca 3d
       -0.14416558 0.0647499 0.07033528 0.09912081
000390 f8 8a 61 3e a6 e8 fd bd ea 69 b9 3d 18 85 8d 3e
       0.22025669 -0.1239789 0.09053405 0.27640605
0003a0 51 76 ad bd 22 b5 8c 3e bb 2c 1f 3d 80 f5 ec bc
       -0.08469833 0.27481943 0.038861018 -0.028925657
0003b0 98 0a a7 bd bf 43 49 3e b2 f2 50 3e f7 3d bd bc
       -0.081563175 0.1965475 0.20405081 -0.023100836
0003c0 a8 53 c9 bd f6 0b b7 bc 9c 9d 9c 3e 17 58 17 be
       -0.09830409 -0.02234457 0.30588996 -0.14779697
0003d0 5c fa 80 3d 50 33 80 3e 45 3d 19 bd b8 82 8b bd
       0.06297752 0.25039148 -0.037411947 -0.06812042
0003e0 a5 3d 47 be c8 b5 3b 3e 06 e0 0c be 8e 15 45 be
       -0.1945711 0.18331063 -0.13757333 -0.19246504
0003f0 f6 51 2d 3c fb 55 38 3d 14 53 6b be ee a5 2f bd
       0.010578623 0.045003872 -0.2298091 -0.042882852

linear2.weight f4 [3, 256]
000000 cc 8a 0b bd 5d d8 31 bd ea d8 5e 3d b9 89 4e bd
       -0.034067914 -0.04341923 0.054406084 -0.05042431
000010 a6 f1 ce bb 45 7f 49 bb 14 bb 74 bc 35 b8 0a bd
       -0.006315428 -0.0030746025 -0.014937181 -0.03386708
000020 40 e3 77 bc 93 40 0d bb e9 cd 34 bd 89 9a 84 bd
       -0.015129864 -0.0021553382 -0.044141684 -0.06474788
000030 3c f0 6b ba 41 8b 9d bd 6e d7 a7 3c 70 37 06 3c
       -0.0009000336 -0.07692576 0.020488467 0.008191928
000040 e8 08 0e b9 b7 09 a5 bd c3 90 96 bc be 2b b6 3c
       -0.00013545493 -0.080584936 -0.018379575 0.022237655
000050 f6 a2 6d 3d 65 f9 2e bd 00 d1 54 bd 2a 21 75 3c
       0.05801674 -0.04271831 -0.05195713 0.01496152
000060 c1 92 08 3d 62 f2 4c 3c 5b af 98 3b 14 5c 49 bc
       0.03334308 0.01250896 0.004659576 -0.01229002
000070 4e d5 17 bd 6c 21 cd 3c 2c be 2f 3c 2c 58 10 bd
       -0.037068658 0.02504035 0.010726493 -0.035240337
000080 68 04 26 bd 6d a9 37 3d a0 ed 1d 3d 28 ae ab bc
       -0.040531546 0.04483931 0.038556695 -0.020957068
000090 b0 73 13 3d ce 0c b1 bc f8 d1 56 bd ff 0e 8f 3a
       0.035999 -0.021612551 -0.052446336 0.0010914503
0000a0 be ab 4a 3d 7d b0 04 3c 4d dd 75 3d 35 fe 7c 3d
       0.049480192 0.008098719 0.060025502 0.06176587
0000b0 d6 15 6f 3c 40 81 2e bd ba 0a 9a 3b 4f 15 83 3c
       0.014592608 -0.04260373 0.0047009857 0.016001372
0000c0 27 e9 cb bc 10 c2 72 3c 13 c4 ec bc 64 84 8d bc
       -0.02489145 0.014816776 -0.02890209 -0.017275043
0000d0 8a ea 42 3b ca 2a 19 3d 33 c6 fd bc 77 d3 18 3d
       0.0029741847 0.037394322 -0.030978298 0.037311044
0000e0 0d 56 82 3c cf 41 39 3c a3 b9 f4 bb c5 5d 43 bd
       0.015910173 0.011307194 -0.0074684187 -0.047696847
0000f0 af 0b f4 3a f5 d8 79 bd d9 3e 1d bd f7 03 5e bd
       0.0018619205 -0.060997922 -0.038390014 -0.054203
000100 4d 5c 5c bd 2a de 03 bd 47 c5 ad bc a4 04 81 bd
       -0.053798962 -0.032194294 -0.021212233 -0.06299713
000110 06 b3 f3 3c 50 62 a3 3b 98 95 52 bc a3 38 46 bd
       0.029748451 0.004986085 -0.012853049 -0.048393857
000120 16 02 15 3d f7 c1 ec 3b 37 95 af 3c 08 97 75 bd
       0.036378942 0.007225271 0.021433456 -0.059958488
000130 bb d0 4a 3b 8c fd 0e bd 30 84 ab bd 93 40 3f 3c
       0.0030947167 -0.03490977 -0.08374822 0.011673111
000140 2d e3 37 3c 8f 34 09 bd c0 de 9e ba 58 42 40 3d
       0.0112235965 -0.03349739 -0.0012120828 0.04693827
000150 7b b0 8e bc ba de 7b bd 24 ce b0 bd 13 17 7e bc
       -0.017418137 -0.061491705 -0.08633068 -0.015508431
000160 ab 9a 92 bd 29 42 e0 bb 5c e7 e0 bc a4 6a 13 3d
       -0.07158407 -0.0068438244 -0.02745407 0.035990372
000170 21 72 0b bd e5 a6 8c 3d da 6f ca bc 3b a1 24 bc
       -0.03404439 0.0686777 -0.024711538 -0.010048206
000180 2a 3d 47 3d 6a 36 6b bd c6 78 7b bd ce 0d 83 3d
       0.048642315 -0.05742494 -0.061394475 0.063991174
000190 ba 43 ac 3d 81 ad 56 bc ae 47 ea 3c 25 2f 6f bd
       0.08411355 -0.01310289 0.028598633 -0.05839457
0001a0 9a 0d 0b bc f0 33 36 3d 67 55 19 bd 5e fe 72 3c
       -0.00848713 0.044483125 -0.03743496 0.014831154
0001b0 a8 74 7f bc 35 7d bc bc f1 b1 c6 bc f8 30 a1 bb
       -0.015591778 -0.023008922 -0.024254771 -0.0049191676
0001c0 c6 ce 7b bc 43 8f 3a bd 41 9d 0e bc b7 f7 08 3c
       -0.015369123 -0.04554678 -0.008704484 0.008359841
0001d0 d1 87 6d 3d 58 da 18 3d a7 98 08 bd 4b 2e 38 3d
       0.057990853 0.037317604 -0.033348706 0.044966023
0001e0 65 d9 2f 3d 9a 68 1b bd 46 81 44 bd 32 e4 6f bd
       0.042931933 -0.037941553 -0.047974847 -0.058567233
0001f0 70 1c f5 3c 56 8c b4 bc b1 d2 5e 3b 3f 4a 0e 3b
       0.029920787 -0.022039574 0.0034000094 0.0021711735
000200 8a 6e 0b 3d b8 09 ce bc 7b b8 8f bd e3 71 e9 bb
       0.034040965 -0.025151119 -0.07017609 -0.007124172
000210 cc 25 c6 bc f5 85 5e bd 07 49 9b bc f2 77 5b bd
       -0.024187945 -0.05432697 -0.01895572 -0.053581186
000220 9c 41 36 ba ba 4f f5 bc 32 2c 45 bd 45 c0 b1 bc
       -0.00069525256 -0.029945243 -0.04813785 -0.021698127
000230 82 4f 25 3c 96 3e 5d bd 5f 88 76 3d 3c b6 eb 3c
       0.010089757 -0.054014765 0.060188647 0.02877342
000240 ec 34 78 bc d7 83 f2 bc ff 32 06 3d 79 d3 92 bd
       -0.015149336 -0.029603882 0.032763477 -0.071692415
000250 dc 11 fb bc 89 a3 fa 3c 58 9e d5 bc 9f 0c fa ba
       -0.030648164 0.030595558 -0.02607648 -0.0019077248
000260 a2 37 5b 3d 42 80 3a bd 5a a3 d4 bc ff 0b e1 bc
       0.053519852 -0.045532472 -0.025956798 -0.02747154
000270 67 84 a1 bb cb 0d 20 bc 92 f6 a1 bc 0b 92 95 bd
       -0.0049291137 -0.0097689135 -0.019770894 -0.07303246
000280 36 53 42 3c b1 e0 06 3d e2 2b 00 bd 0f 89 0c bd
       0.011860659 0.032929126 -0.03129185 -0.034310397
000290 71 e9 49 bd 3e 37 cc bc ee 66 3b 3d f6 55 3f bd
       -0.049294893 -0.024928685 0.04575246 -0.046712838
0002a0 22 97 eb ba f3 9b 95 bd 0f 34 da 3c 9b ba 33 bc
       -0.0017974118 -0.073051356 0.026636152 -0.010969783
0002b0 8a cc 12 3d 82 f1 53 bd 09 96 45 bd 86 c2 e3 bc
       0.035839595 -0.05174399 -0.048238788 -0.027802717
0002c0 98 ab 97 3b e0 67 1d 3c 08 29 bf bc 9b 2c 12 3d
       0.00462861 0.009607285 -0.023334995 0.03568707
0002d0 44 a3 0a bd 89 0e 41 bd ee af 25 bd ed 32 fe 3c
       -0.03384711 -0.047133002 -0.040450983 0.031030143
0002e0 1a 81 3d bd 9c dd 78 bd a1 c6 40 bc f4 01 19 bd
       -0.0462657 -0.06075822 -0.011766107 -0.03735538
0002f0 e5 0b 9c bd 03 94 56 bd 26 ae 44 bd 08 2f 8f bc
       -0.07619456 -0.05238725 -0.048017643 -0.017478481
000300 b0 f5 b4 bb 40 38 aa bc 9a 2e 15 3c e4 57 42 bb
       -0.0055224523 -0.020778775 0.009105349 -0.0029654438
000310 18 d0 2c bd 93 71 fe bb 9d 06 45 bb e5 e3 d9 bc
       -0.04219064 -0.007765004 -0.0030063756 -0.026597926
000320 a0 aa b0 bb f8 5a 06 3c 56 c8 51 3d 4e 44 70 bc
       -0.005391434 0.0082004 0.051216446 -0.014664723
000330 6e f2 f9 bc d5 e0 a1 bc d6 c6 ea 3c 43 72 e0 3c
       -0.030511107 -0.019760529 0.028659265 0.027398234
000340 fb 6f 32 bd 51 47 85 bd da 2b 99 bd c5 2a 2e 3d
       -0.043563824 -0.06507743 -0.07479067 0.042521257
000350 06 a7 8e bd 6d e0 c7 3c 33 97 02 bd 03 16 34 bd
       -0.06965451 0.024399007 -0.031882476 -0.043966305
000360 93 41 97 3c 54 01 fb bb 4d 9b ee bc 6e 82 6a bc
       0.018463885 -0.0076600704 -0.029126788 -0.014313323
000370 28 ab 10 3d 4a 06 cb 3c f0 84 71 bc 52 e4 8c bd
       0.035319477 0.024783272 -0.014741167 -0.06879486
000380 f9 c4 02 bd 97 6f 60 bd 57 e6 1b 3d 86 16 af 3c
       -0.03192613 -0.05479392 0.038061466 0.021373045
000390 29 a5 de 3b 10 f7 0b bd 1c e9 02 bd 94 66 35 bc
       0.006794591 -0.034171164 -0.03196059 -0.01107182
0003a0 b6 34 7f bc 54 51 eb bc 49 26 bc bd 00 8f bc 3c
       -0.015576532 -0.028725304 -0.0918699 0.023017406
0003b0 a8 40 db bc 91 dc 69 bd 6b 4f 50 3d 4c e9 80 bd
       -0.026764229 -0.057095114 0.05085699 -0.06294498
0003c0 d2 30 4d bd 00 3b 24 bd e9 42 14 bd 12 2d ed 3c
       -0.050095387 -0.04009533 -0.036196623 0.028952155
0003d0 ac 87 8b 3a 83 96 62 3c fe 94 4b bc 5f c0 84 bd
       0.0010645292 0.01382983 -0.012425659 -0.064820044
0003e0 12 98 b5 bc 26 9d d1 bc e8 8b 02 3d 9b 9b 4a 3d
       -0.02216724 -0.02558763 0.031871706 0.049464803
0003f0 e2 e9 34 3d c4 89 8e 3c 74 14 1c 3d 9e fe 18 3c
       0.04416836 0.017399676 0.038105443 0.009338049

linear2.bias f4 [3]
000000 f4 f2 e1 3c 94 ae 12 3d 68 03 79 bd
       0.02758167 0.035811022 -0.060794264
